models/home_credit/credit_nn.pt (torch, 202460 bytes, 5 tensors)

net.0.weight f4 [256, 65]
-0.088721074 0.001446316 -0.12019429 0.1818895 0.030968348 -0.15707953 -0.11077202 0.0010473755
0.04005692 -0.032571238 -0.03848689 -0.08995153 0.091227554 0.07124983 -0.16711842 0.14281952
-0.11124796 0.07410682 -0.046688747 0.106388934 -0.036267385 0.13799961 -0.07701431 0.029239373
0.06745286 -0.07999289 -0.06328552 0.02133842 0.0049823695 -0.03059683 -0.051738944 -0.095329106
-0.0035923799 0.0418825 -0.004673066 0.20971906 0.097388335 0.049180444 -0.083959244 0.017879156
-0.09023282 0.034599535 -0.11956195 -0.019562935 0.1462364 0.22869484 -0.06845844 0.00797311
0.018940425 -0.0008552952 -0.1616441 -0.04812801 -0.034394585 0.043286037 -0.026771244 0.06932496
-0.1287988 0.034087844 -0.017962141 0.075920135 0.11374113 -0.06706019 -0.019438913 -0.05125712
-0.11199079 0.029897587 -0.13522385 0.085339464 0.050705355 0.030647432 -0.09410484 0.06879681
-0.022166992 -0.017739063 0.08725017 0.124647245 0.0030402767 -0.14623792 0.20073971 -0.027636925
-0.11001742 0.1456949 0.09034553 -0.099042244 -0.029771615 -0.10675346 0.05021576 -0.072179995
-0.014865958 -0.057624947 -0.07879438 0.1103384 0.0086678965 -0.09409679 -0.07869025 0.023554126
-0.10190688 0.11295878 0.05410681 0.00774421 0.055107187 -0.022272278 0.052104842 0.10120684
-0.082941726 -0.21995836 -0.0047122757 0.081458 0.13081384 -0.08046519 0.22501619 0.07467303
-0.07308155 -0.082988285 -0.0012794925 0.11081809 -0.04687136 0.06924556 -0.010631375 -0.04187729
-0.06691128 -0.003736218 0.0023098304 -0.08346304 0.04130952 0.022473969 -0.060379542 -0.029780444
-0.050753452 -0.034890678 0.06254194 0.045284566 -0.0008178172 0.117910415 0.074162476 0.10334834
0.116661996 -0.06485095 -0.039751776 0.030610548 0.22735605 -0.018982718 -0.09337519 0.056009647
0.13609876 0.12149671 -0.025075784 -0.08205774 -0.08626053 0.014024517 0.13497229 0.06638626
-0.112265505 -0.14976095 0.0006182064 0.13855024 -0.15878682 -0.012477153 0.07464516 -0.0033281078
-0.06767287 -0.15125021 0.0043193763 -0.028006202 -0.0445689 -0.06506126 -0.051779494 -0.037561983
0.04879065 0.036003638 -0.050976872 0.15365791 -0.0523381 -0.08168385 0.041738927 0.18397687
0.04754678 -0.011836977 -0.038452223 0.009477059 -0.047763813 -0.13878511 0.12721942 -0.06154172
0.030612752 0.11994679 -0.065336585 -0.06128489 0.013552965 0.056759793 0.01638728 -0.085754566
0.019974366 0.037840266 0.103229955 0.027257776 0.11805559 -0.060567573 -0.10190966 0.0038367894
-0.024242546 0.054107107 0.023798222 -0.111733615 0.110027455 -0.026089087 0.015642114 -0.052122056
-0.0019240928 0.003924869 0.09754803 0.042187754 0.08462289 -0.07334531 0.057044126 0.03919907
-0.0973542 0.0549463 0.062319946 0.11836798 -0.014105298 0.10049507 0.06595699 -0.078744754
-0.14095831 -0.0511948 -0.11810239 0.084769316 0.0331294 0.09773794 0.098301545 -0.06744752
0.1633898 -0.07070277 -0.016145244 -0.016812569 -0.03749526 0.05139429 0.027292503 0.14917259
-0.03529021 -0.03898343 0.102617316 -0.001691325 0.029347511 0.066227525 0.016595446 0.1416296
-0.14583157 -0.07668432 -0.08738168 0.0073510953 0.08799523 0.062303867 0.06400597 -0.0134168705
00000000: 65b3 b5bd 5092 bd3a 6d28 f6bd 3e41 3a3e
00000010: 55b1 fd3c 75d9 20be 71dc e2bd 1748 893a
00000020: ba12 243d 6b69 05bd 6ea4 1dbd 8238 b8bd
00000030: 83d5 ba3d 6eeb 913d 1721 2bbe 483f 123e
00000040: f8d5 e3bd 51c5 973d b33c 3fbd 71e2 d93d
00000050: 1c8d 14bd c54f 0d3e aeb9 9dbd 6987 ef3c
00000060: ba24 8a3d 50d3 a3bd d79b 81bd e9cd ae3c
00000070: 2543 a33b 34a6 fabc 37ec 53bd e83b c3bd
00000080: 226e 6bbb fc8c 2b3d 8520 99bb 98c0 563e
00000090: 8973 c73d 6f71 493d d3f2 abbd 4f77 923c
000000a0: fccb b8bd 3eb8 0d3d e5dc f4bd 7342 a0bc
000000b0: ffbe 153e fb2e 6a3e f033 8cbd a6a1 023c
000000c0: f328 9b3c e435 60ba 0886 25be e021 45bd
000000d0: 56e1 0cbd b34c 313d 5e4f dbbc 3ffa 8d3d
000000e0: d5e3 03be b29f 0b3d 5725 93bc 047c 9b3d
000000f0: 1cf1 e83d da56 89bd 5b3e 9fbc fcf2 51bd
00000100: 6d5b e5bd c9eb f43c 1f78 0abe 75c6 ae3d
00000110: 6bb0 4f3d 5310 fb3c 0aba c0bd 58e5 8c3d
00000120: 8d97 b5bc 8351 91bc 38b0 b23d 0e47 ff3d
00000130: 613f 473b 65bf 15be b68e 4d3e d566 e2bc
00000140: d050 e1bd 0b31 153e 1407 b93d a9d6 cabd
00000150: 9ae3 f3bc 8fa1 dabd 0aaf 4d3d 1bd3 93bd
00000160: 5990 73bc 2308 6cbd f35e a1bd 19f9 e13d
00000170: cb03 0e3c d1b5 c0bd 5b28 a1bd 95f4 c03c
00000180: 8eb4 d0bd ef56 e73d 1a9f 5d3d 24c3 fd3b
00000190: 13b8 613d 5a74 b6bc e36b 553d 8845 cf3d
000001a0: 5add a9bd c43c 61be 6f69 9abb 74d3 a63d
000001b0: 10f4 053e efca a4bd a56a 663e 2cee 983d
000001c0: c8ab 95bd c3f5 a9bd a5b4 a7ba 98f4 e23d
000001d0: 2ffc 3fbd 9ed0 8d3d 382f 2ebc 8587 2bbd
000001e0: c808 89bd 56db 74bb 8660 173b acee aabd
000001f0: 2c34 293d 541b b83c 8a50 77bd 1ef6 f3bc
00000200: dae2 4fbd 87e9 0ebd fd15 803d 4f7c 393d
00000210: c962 56ba 047b f13d 7fe2 973d 4ba8 d33d
00000220: 7cec ee3d 93d0 84bd c2d2 22bd f9c2 fa3c
00000230: 06d0 683e a581 9bbc 7e3b bfbd 5f6a 653d
00000240: 795d 0b3e 44d3 f83d bb6b cdbc e30d a8bd
00000250: 5ca9 b0bd 16c7 653c 2d36 0a3e 85f5 873d
00000260: 75eb e5bd ef5a 19be 210f 223a 1de0 0d3e
00000270: 0399 22be f96c 4cbc 90df 983d 621c 5abb
00000280: 1398 8abd 56e1 1abe 8e89 8d3b 436d e5bc
00000290: e18d 36bd d63e 85bd bc16 54bd 98da 19bd
000002a0: b4d8 473d 8d78 133d 20cd 50bd 8058 1d3e
000002b0: 7a60 56bd dd49 a7bd 70f6 2a3d 6f64 3c3e
000002c0: 6ac0 423d e1ef 41bc 1480 1dbd ab45 1b3c
000002d0: fda3 43bd af1d 0ebe cf45 023e 2c13 7cbd
000002e0: 98c7 fa3c aaa6 f53d 30cf 85bd dd05 7bbd
000002f0: 410d 5e3c f57c 683d 9e3e 863c 17a0 afbd
00000300: 48a1 a33c 65fe 1a3d 3a6a d33d b34b df3c
00000310: 21c7 f13d b415 78bd 03b6 d0bd a572 7b3b
00000320: 4e98 c6bc 6a9f 5d3d 7df4 c23c 98d4 e4bd
00000330: 1356 e13d c8b8 d5bc e423 803c f07d 55bd
00000340: d731 fcba 309c 803b 43c7 c73d 11cd 2c3d
00000350: c44e ad3d 1136 96bd 1aa7 693d 348f 203d
00000360: a461 c7bd 5f0f 613d 3343 7f3d e96a f23d
00000370: e819 67bc 5cd0 cd3d 7514 873d ee44 a1bd
00000380: 6057 10be a3b1 51bd aadf f1bd 899b ad3d
00000390: b2b2 073d d42a c83d 5252 c93d ed21 8abd
000003a0: a84f 273e 9dcc 90bd 0843 84bc 83ba 89bc
000003b0: a194 19bd d282 523d 8794 df3c b3c0 183e
000003c0: 788c 10bd 17ad 1fbd 0729 d23d 73af ddba
000003d0: 316a f03c 4ca2 873d 2cf3 873c 5a07 113e
000003e0: df54 15be ab0c 9dbd 2bf5 b2bd 75e1 f03b
000003f0: d836 b43d 5732 7f3d 9015 833d 6fd2 5bbc

net.0.bias f4 [256]
-0.08256238 -0.08822448 -0.056972817 0.06726848 0.052177668 0.07811608 0.11658812 0.06059781
-0.007198836 -0.07074874 0.057425365 -0.04166268 -0.104121745 -0.08993279 -0.018468989 0.020834005
-0.12030076 0.090970986 0.038309056 -0.007107613 -0.041782256 0.13985631 0.103502825 0.081512794
-0.13442317 0.097492345 0.023955757 -0.025221735 -0.09417764 0.02941176 -0.02582507 0.06600721
0.11418126 0.04453449 -0.094025485 0.10876042 0.051201396 0.0509096 0.08707722 -0.008499102
-0.07404759 -0.050266992 0.03140366 -0.009214414 0.011185067 -0.0030527245 -0.12141919 -0.02483317
-0.061749853 0.041763406 -0.117404975 0.111881316 0.026063506 -0.07272858 0.055027056 -0.06448836
0.09278062 -0.022856891 -0.08950126 -0.046229202 -0.0857347 -0.051249456 -0.043731485 -0.05478846
-0.06436753 -0.013453677 0.0039011734 0.029208893 -0.118337356 -0.028075237 0.04798856 0.035349738
-0.019616473 -0.07698536 -0.11310409 -0.12729591 -0.123539485 -0.078986295 0.011425566 -0.13618806
0.14303182 -0.034491524 -0.05413775 0.06179714 0.1018666 0.051517174 0.0735335 0.024196649
0.12885135 0.07607705 -0.09294467 0.092672564 0.044072386 -0.09717332 0.11567112 -0.15471826
0.09921023 -0.11571952 -0.07071365 -0.036468368 0.03175414 0.03280072 0.11199603 -0.14242783
-0.1194805 -0.09141805 -0.05929015 0.12784687 -0.106501676 0.0115182 0.08322916 0.06962642
-0.07524135 -0.0848232 -0.057872374 -0.06577293 0.119776875 0.0324163 0.11485636 0.08164012
0.0038965235 -0.07087497 -0.029062282 0.100705996 0.09764794 0.07158072 -0.090326086 0.018648092
-0.035207093 0.013112413 0.08455126 -0.09178055 -0.09254698 0.15749744 0.047444474 -0.08322418
0.033850268 0.018323453 0.064489186 0.1076636 0.03285555 -0.1238397 0.07299755 0.09129993
0.03047242 0.12920552 -0.08335149 0.11856891 0.043190263 0.028759824 -0.064580195 0.07933466
0.061990444 0.09711236 0.051434796 -0.07118129 -0.004227065 0.037500042 0.067502365 -0.04486183
-0.10614724 -0.016746938 -0.0896526 -0.043312825 0.08882682 0.004273657 0.14596353 -0.08397722
0.01412791 0.1280598 0.0450244 -0.11272029 0.023327192 -0.081267454 -0.007958191 0.12310083
0.030497445 -0.09112984 -0.05771797 0.11857645 -0.070024595 -0.047679678 0.022045132 -0.026287416
-0.019531246 -0.12609386 0.028413935 0.047693998 -0.043329846 -0.0017263525 0.06270332 0.022836126
-0.08365668 0.077226445 0.10532532 -0.049148507 -0.1305266 -0.10154936 0.09312851 -0.07524531
0.035942808 -0.077164166 -0.08513857 -0.06537314 0.102816105 0.09309224 -0.08012986 0.142453
0.10489529 0.15259247 0.09624367 0.06545411 -0.09210173 -0.10630887 -0.10850378 -0.04025527
0.05700697 0.112905286 0.12532029 0.028978791 0.05543793 0.11211849 0.05753323 -0.016466476
0.03953729 0.058115203 -0.08208834 -0.033492498 -0.041997023 0.06894308 0.03776785 0.048554514
0.059492428 0.07366168 -0.07363828 0.020653099 0.023435617 -0.06807669 0.12500867 -0.08264988
-0.08702833 -0.10108045 0.08754156 0.1672321 -0.04213905 0.07535682 -0.07104032 -0.026397582
-0.07338296 0.09450436 0.05280632 -0.06842518 -0.07588541 -0.0028850993 0.075480826 0.028280059
00000000: 7716 a9bd 09af b4bd 545c 69bd 0fc4 893d
00000010: 40b8 553d 53fb 9f3d c1c5 ee3d 6935 783d
00000020: 37e4 ebbb b7e4 90bd dc36 6b3d 7da6 2abd
00000030: c83d d5bd af2e b8bd 474c 97bc 13ac aa3c
00000040: 3f60 f6bd ff4e ba3d f5e9 1c3d fbe6 e8bb
00000050: df23 2bbd 7e36 0f3e 4af9 d33d 2ef0 a63d
00000060: 3aa6 09be 11aa c73d dd3e c43c d09d cebc
00000070: 35e0 c0bd eef0 f03c 198f d3bc ca2e 873d
00000080: ddd7 e93d cc69 363d 6f90 c0bd c8bd de3d
00000090: 8eb8 513d 9686 503d 8b55 b23d d13f 0bbc
000000a0: 43a6 97bd c3e4 4dbd 20a1 003d 0ef8 16bc
000000b0: 9241 373c 3810 48bb a0aa f8bd ef6e cbbc
000000c0: 6aed 7cbd 1b10 2b3d 0572 f0bd 0822 e53d
000000d0: 2283 d53c b9f2 94bd 0d64 613d 7912 84bd
000000e0: c403 be3d 603e bbbc 704c b7bd d55a 3dbd
000000f0: ad95 afbd f3ea 51bd c91f 33bd dd69 60bd
00000100: 20d3 83bd d06c 5cbc d4aa 7f3b 7d47 ef3c
00000110: db5a f2bd 0afe e5bc a78f 443d e3ca 103d
00000120: bab2 a0bc 80aa 9dbd 1ea3 e7bd dc59 02be
00000130: 4502 fdbd 91c3 a1bd 4c32 3b3c e274 0bbe
00000140: ef76 123e fc46 0dbd 8cbf 5dbd ff1e 7d3d
00000150: 709f d03d ac03 533d bb98 963d 0d38 c63c
00000160: 9cf1 033e 49ce 9b3d c659 bebd 1dcb bd3d
00000170: 3f85 343d ce02 c7bd fbe4 ec3d 776e 1ebe
00000180: bc2e cb3d 5bfe ecbd 51d2 90bd db5f 15bd
00000190: a110 023d 0c5a 063d 2d5e e53d 9ad8 11be
000001a0: 31b2 f4bd 6339 bbbd 3ada 72bd 4aea 023e
000001b0: 8d1d dabd d5b6 3c3c 0d74 aa3d 4c98 8e3d
000001c0: 2318 9abd c9b7 adbd 950b 6dbd f5b3 86bd
000001d0: 944d f53d f4c6 043d d039 eb3d ef32 a73d
000001e0: d15c 7f3b e526 91bd 0614 eebc f23e ce3d
000001f0: a5fb c73d ea98 923d e2fc b8bd e2c3 983c
00000200: 5035 10bd 72d5 563c 3629 ad3d 71f7 bbbd
00000210: 4589 bdbd 0247 213e 2355 423d 7071 aabd
00000220: 94a6 0a3d 111b 963c e812 843d bc7e dc3d
00000230: 8b93 063d ab9f fdbd bd7f 953d 75fb ba3d
00000240: 4ca1 f93c 744e 043e 30b4 aabd 42d4 f23d
00000250: 46e8 303d b999 eb3c 9f42 84bd 367a a23d
00000260: b1e9 7d3d d8e2 c63d 4bad 523d 7fc7 91bd
00000270: 3183 8abb a599 193d ae3e 8a3d 0ac1 37bd
00000280: b963 d9bd e030 89bc c89b b7bd ca68 31bd
00000290: d6ea b53d 090a 8c3b 7777 153e 40fc abbd
000002a0: c078 673c 1c22 033e 816b 383d e5d9 e6bd
000002b0: ab18 bf3c 8d6f a6bd 1363 02bc 4a1c fc3d
000002c0: c7d5 f93c 48a2 babd ae69 6cbd 36d8 f23d
000002d0: 0e69 8fbd c44b 43bd fe97 b43c b558 d7bc
000002e0: feff 9fbc c01e 01be 57c4 e83c c85a 433d
000002f0: a37a 31bd c746 e2ba 996a 803d d412 bb3c
00000300: 3254 abbd e628 9e3d cdb4 d73d f24f 49bd
00000310: c4a8 05be 1cf9 cfbd 29ba be3d 371a 9abd
00000320: c438 133d 3f08 9ebd 215d aebd 5ae2 85bd
00000330: 4091 d23d 25a7 be3d 201b a4bd 33df 113e
00000340: 58d3 d63d 3341 1c3e 671b c53d ce0c 863d
00000350: d59f bcbd 77b8 d9bd 3b37 debd b6e2 24bd
00000360: 2480 693d e33a e73d f653 003e ee64 ed3c
00000370: e212 633d 619e e53d f7a7 6b3d b4e4 86bc
00000380: daf1 213d 350a 6e3d ee1d a8bd 6e2f 09bd
00000390: 1205 2cbd 0832 8d3d 76b2 1a3d 19e1 463d
000003a0: 55ae 733d efdb 963d abcf 96bd b030 a93c
000003b0: 0dfc bf3c cb6b 8bbd 4602 003e 5744 a9bd
000003c0: e93b b2bd 4403 cfbd fd48 b33d e43e 2b3e
000003d0: ff99 2cbd ad54 9a3d 967d 91bd be3f d8bc
000003e0: ce49 96bd 808b c13d 714b 583d 8022 8cbd
000003f0: cf69 9bbd ef13 3dbb b195 9a3d 95ab e73c

net.3.weight f4 [128, 256]
-0.0015483664 0.03196869 -0.0069409045 0.012067851 -0.011140023 -0.035641756 -0.0395763 -0.044639185
0.05144218 0.05180038 -0.03980567 -0.04015967 0.02360166 0.014400445 -0.018590203 -0.040654477
0.032051723 -0.007029911 -0.04823946 -0.024783095 0.03763098 -0.02328647 -0.049103882 0.036836658
0.04468061 0.028635224 0.01327149 -0.01674601 -0.022248652 0.008928898 -0.021809662 0.04553063
-0.06252797 0.023000779 -0.048985127 -0.033880007 0.030904008 0.037344903 -0.057556182 0.0033453733
-0.012742785 -0.041550264 0.032673623 -0.007977643 -0.04611125 -0.030867657 0.0023016024 -0.04687114
-0.005570943 0.011564015 0.035182875 -0.0011628666 0.038387273 0.01827309 -0.0424186 0.042880204
-0.056213208 -0.025623541 -0.00473926 -0.011679345 -0.006899401 0.016922852 -0.0033152786 -0.009730734
0.02300259 0.039013907 0.0145311495 -0.02955209 -0.015138963 -0.01745916 -0.039881535 0.03676585
-0.063791566 -0.020191763 -0.07129758 0.001026955 0.05323107 0.051515795 0.04218755 -0.070563145
-0.031465087 0.04706604 -0.07067564 -0.023829672 -0.051528025 0.008444309 0.020504575 0.033063404
-0.048155114 -0.035855945 -0.065238066 -0.025999641 -0.07473168 -0.057077266 0.017340913 -0.016466744
0.010072171 -0.060500573 -0.03758748 -0.0349237 0.0033199608 1.0288669e-05 0.007689706 -0.0025304686
-0.056627378 0.025797905 -0.0023634876 -0.050236735 0.011403381 -0.049743313 -0.07170699 0.03703221
0.023930795 0.013688543 -0.040871836 0.032951437 0.04120742 0.0097930785 -0.05083977 0.0013712556
0.015296737 -0.047440935 -0.05711749 -0.05197296 -0.061879296 -0.02261221 -0.025027486 -0.021501284
-0.068702936 -0.06961671 0.029016644 -0.016554702 0.03769764 -0.0012224223 -0.023294969 -0.03236285
0.040559843 0.05047958 0.046420347 -0.024530584 -0.06182291 0.022688538 0.037134293 -0.024189077
-0.013701324 -0.02189535 -0.03323393 -0.017707923 -0.059209183 -0.036419146 0.0015071839 -0.051365793
-0.05094617 -0.02468154 -0.041487228 -0.050951935 -0.020021614 -0.015169713 -0.06189977 -0.027276473
0.03244333 -0.000756325 -0.03333335 -0.037574593 -0.053294707 -0.052560102 -0.02965122 0.008852906
-0.047621485 -0.026450602 0.009993013 -0.028170101 -0.06337105 -0.043618932 -0.040909834 -0.03998941
-0.0029673756 0.009802849 -0.009528834 0.036225203 -0.048642274 -0.07630011 -0.07196755 -0.054034963
0.050576717 0.031117143 0.046727184 0.016420204 -0.048923384 0.034995332 0.018033652 -0.0138911065
0.026513787 0.042284675 -0.0056458465 0.04812394 -0.041079685 -0.056513384 -0.032617044 0.018212417
-0.04309196 -0.038548496 0.043305833 -0.05048441 -0.057692237 0.045893278 -0.05076321 0.036044136
0.036747262 -0.049561866 0.04343038 -0.012439132 0.03481001 -0.044424355 -0.06982672 0.025613094
0.019640947 0.014472988 0.018552963 -0.007406147 0.0044923862 -0.01669326 0.027951878 -0.05289973
-0.061854713 -0.010273031 -0.0032610977 0.023331929 0.023834541 -0.02850689 0.0030228158 0.025726464
-0.055301517 0.019182757 0.019553944 -0.030281104 -0.016214313 -0.05338731 -0.06434897 -0.047417734
-0.04041171 -0.062894434 0.047390718 -0.031814523 -0.061898455 0.014285447 -0.016224284 -0.051639624
0.0062483647 0.006461164 0.01766326 -0.06773212 -0.0077600745 -0.04815124 0.059070256 -0.019259397
00000000: 8ef2 caba 9af1 023d 8770 e3bb 3cb8 453c
00000010: a584 36bc 17fd 11bd c21a 22bd 94d7 36bd
00000020: 09b5 523d a32c 543d 450b 23bd 777e 24bd
00000030: 4558 c13c d8ef 6b3c 7b4a 98bc 4f85 26bd
00000040: ab48 033d 2b5b e6bb bd96 45bd eb05 cbbc
00000050: f122 1a3d 44c3 bebc 2721 49bd 09e2 163d
00000060: 0403 373d 6b94 ea3c aa70 593c ee2e 89bc
00000070: ce42 b6bc 834a 123c 2daa b2bc 537e 3a3d
00000080: aa0e 80bd 216c bc3c a1a4 48bd c3c5 0abd
00000090: 672a fd3c f8f6 183d 08c0 6bbd 0d3e 5b3b
000000a0: 1dc7 50bc 9c30 2abd c7d4 053d a9b4 02bc
000000b0: 26df 3cbd 2bde fcbc 7bd6 163b f4fb 3fbd
000000c0: 758c b6bb ff76 3d3c eb1b 103d 546b 98ba
000000d0: f93b 1d3d 72b1 953c 20bf 2dbd 27a3 2f3d
000000e0: d23f 66bd 76e8 d1bc cb4b 9bbb b95a 3fbc
000000f0: 5f14 e2bb cba1 8a3c 2545 59bb a86d 1fbc
00000100: ed6f bc3c 0ccd 1f3d 0f14 6e3c 3a17 f2bc
00000110: 6a09 78bc 8306 8fbc d25a 23bd ca97 163d
00000120: 27a5 82bd 3269 a5bc 7704 92bd e49a 863a
00000130: d308 5a3d 3a02 533d dacc 2c3d 6983 90bd
00000140: 89e1 00bd 52c8 403d 64be 90bd 7236 c3bc
00000150: 0d0f 53bd 005a 0a3c 36f9 a73c 7e6d 073d
00000160: 4c3e 45bd afdd 12bd 899b 85bd 33fd d4bc
00000170: ec0c 99bd dac9 69bd 880e 8e3c 44e5 86bc
00000180: bf05 253c 73cf 77bd 54f5 19bd 270c 0fbd
00000190: b393 593b 7f9d 2c37 eef9 fb3b 38d6 25bb
000001a0: 1cf2 67bd 2156 d33c bee4 1abb 09c5 4dbd
000001b0: 3fd5 3a3c a5bf 4bbd 1ddb 92bd 16af 173d
000001c0: 840a c43c e945 603c 3a69 27bd 16f8 063d
000001d0: 1dc9 283d 2673 203c 5d3d 50bd b4bb b33a
000001e0: 2a9f 7a3c 6d51 42bd 07f4 69bd 99e1 54bd
000001f0: 2575 7dbd 3e3d b9bc 7106 cdbc 7623 b0bc
00000200: 20b4 8cbd 3593 8ebd 50b4 ed3c ba9d 87bc
00000210: d768 1a3d b039 a0ba 17d5 bebc e88e 04bd
00000220: 1422 263d adc3 4e3d 4323 3e3d 5df4 c8bc
00000230: 053a 7dbd 50dd b93c 211a 183d 2c28 c6bc
00000240: 857b 60bc e15d b3bc 4d20 08bd 3510 91bc
00000250: 5485 72bd 3e2c 15bd b38c c53a f064 52bd
00000260: eeac 50bd f130 cabc 83ee 29bd fab2 50bd
00000270: 5e04 a4bc 638a 78bc 9d8a 7dbd e972 dfbc
00000280: 4ce3 043d 1d44 46ba 8d88 08bd d1e7 19bd
00000290: 8d4b 5abd 4349 57bd 1ee7 f2bc c70b 113c
000002a0: bf0e 43bd efae d8bc bcb9 233c fcc4 e6bc
000002b0: aec8 81bd c4a9 32bd 1291 27bd f0cb 23bd
000002c0: 4d78 42bb 219c 203c d41e 1cbc e160 143d
000002d0: 1f3d 47bd 3b43 9cbd b963 93bd c453 5dbd
000002e0: 8829 4f3d 61e9 fe3c 0165 3f3d aa83 863c
000002f0: e363 48bd 4457 0f3d 4fbb 933c 8697 63bc
00000300: 7133 d93c b232 2d3d cb00 b9bb 9c1d 453d
00000310: 2c43 28bd 947a 67bd 7399 05bd 3532 953c
00000320: 3281 30bd 07e5 1dbd 7561 313d bec8 4ebd
00000330: b24e 6cbd 97fa 3b3d 15ed 4fbd 04a3 133d
00000340: 4c84 163d 6201 4bbd 0ee4 313d 80cd 4bbc
00000350: f194 0e3d 50f6 35bd 5001 8fbd 8dd2 d13c
00000360: 0de6 a03c 1d20 6d3c 62fc 973c 44af f2bb
00000370: de34 933b 4ec0 88bc 56fb e43c 63ad 58bd
00000380: 5e5b 7dbd 3750 28bc 24b8 55bb 9a22 bf3c
00000390: a840 c33c 4887 e9bc 6f1a 463b 4ec0 d23c
000003a0: d883 62bd 2825 9d3c 982f a03c 1410 f8bc
000003b0: e1d3 84bc a7ac 5abd 65c9 83bd 1939 42bd
000003c0: c086 25bd ccce 80bd c51c 423d f24f 02bd
000003d0: 3c89 7dbd 820d 6a3c cae8 84bc 1284 53bd
000003e0: 15bf cc3b 2cb8 d33b 8bb2 903c 23b7 8abd
000003f0: 3948 febb 3c3a 45bd a7f3 713d e2c5 9dbc

net.3.bias f4 [128]
0.009153911 0.009833935 -0.01055887 -0.0050049704 0.0447415 0.016168846 -0.013580653 0.026568765
0.012111478 0.020081727 -0.05805866 -0.056919795 0.052858673 0.012901648 -0.062351197 -0.048657633
0.04147796 -0.028950373 -0.04038099 0.027436856 0.02346012 -0.034988753 -0.055739723 0.05633099
-0.046511844 -0.0016688431 0.0014626397 0.037629187 0.023955824 -0.014274634 -0.018496715 0.06765823
0.07334142 0.021838374 0.0703039 -0.023453157 -0.069801666 0.032527108 0.027619407 0.007261453
0.026406454 -0.064828984 0.035474744 -0.005587998 0.03657395 -0.03981444 -0.026334157 0.0028547791
0.008176545 0.012788511 -0.009145699 0.0018110113 -0.038110346 0.058425263 -0.004741362 -0.052050356
0.062370714 -0.025451818 -0.037880637 0.051271114 -0.0043364093 0.02237012 0.009295675 -0.0028504187
-0.009846508 0.010029344 0.0073211556 0.072694324 -0.014394827 0.06894212 -0.0009278056 0.08018364
0.043799143 0.009554464 -0.021360207 0.04249396 -0.012070504 -0.039430663 0.057223182 0.08751953
-0.0292894 0.041838165 0.041112207 0.041456487 0.037333474 -0.008935496 -0.011776201 0.06713142
0.12132727 -0.005221361 0.042520244 0.07592496 0.008769903 -0.057850596 0.052790124 -0.028866354
0.0087246 -0.049606655 -0.029616732 0.017737824 0.022830658 0.032124326 0.05148181 -0.028381795
0.03233627 0.050689396 0.0928207 -0.0073053637 -0.026145015 0.017853081 0.03653715 0.053091146
-0.020141888 -0.025016367 0.059769757 -0.07239561 -0.055378076 0.09076677 0.022143632 -0.014613932
0.09273672 -0.011726506 0.04880798 -0.02205675 0.035864074 -0.058909554 -0.015141952 0.011916088
00000000: 49fa 153c 831e 213c 1cff 2cbc bc00 a4bb
00000010: dd42 373d 8774 843c 6381 5ebc bda6 d93c
00000020: 386f 463c 6f82 a43c ebce 6dbd bb24 69bd
00000030: 5682 583d 6f61 533c f863 7fbd 3a4d 47bd
00000040: cbe4 293d 5529 edbc 8966 25bd 42c3 e03c
00000050: 702f c03c 5e50 0fbd 564f 64bd 53bb 663d
00000060: 3483 3ebd 15bd daba 0bb6 bf3a 1021 1a3d
00000070: 013f c43c 28e0 69bc 6c86 97bc 6690 8a3d
00000080: 0734 963d 64e6 b23c 7efb 8f3d d620 c0bc
00000090: 2df4 8ebd 253b 053d 1842 e23c 7cf1 ed3b
000000a0: 5952 d83c 0fc5 84bd f74d 113d 861b b7bb
000000b0: 91ce 153d 7714 23bd bbba d7bc 3f17 3b3b
000000c0: eaf6 053c e786 513c d8d7 15bc 755f ed3a
000000d0: 9819 1cbd 544f 6f3d 6d5d 9bbb c132 55bd
000000e0: 6f78 7f3d 5580 d0bc ba28 1bbd a901 523d
000000f0: 7018 8ebb 8b41 b73c e34c 183c 17ce 3abb
00000100: 3f53 21bc 1e52 243c 4ee6 ef3b c3e0 943d
00000110: 48d8 6bbc 8731 8d3d fb37 73ba 5237 a43d
00000120: bb66 333d 548a 1c3c 9afb aebc 260e 2e3d
00000130: 5dc3 45bc 0c82 21bd db62 6a3d 703d b33d
00000140: 53f0 efbc 7f5e 2b3d 4665 283d 47ce 293d
00000150: fcea 183d 3066 12bc f8f0 40bc 337c 893d
00000160: 6f7a f83d f317 abbb b529 2e3d 8c7e 9b3d
00000170: a4af 0f3c bff4 6cbd 753a 583d 2279 ecbc
00000180: a0f1 0e3c 5930 4bbd ca9e f2bc ea4e 913c
00000190: 5c07 bb3c cc94 033d 97de 523d f080 e8bc
000001a0: 0973 043d af9f 4f3d c718 be3d d561 efbb
000001b0: 122e d6bc a040 923c fba7 153d 1a76 593d
000001c0: 9a00 a5bc 20ef ccbc 22d1 743d 2644 94bd
000001d0: 1fd4 62bd eee3 b93d 9066 b53c 466f 6fbc
000001e0: c0ec bd3d 8820 40bc e0ea 473d 5bb0 b4bc
000001f0: 35e6 123d 254b 71bd f315 78bc b23b 433c

net.6.weight f4 [1, 128]
0.054255366 0.058162834 0.04343864 -0.021242227 0.0056518153 -0.059115827 -0.08360427 -0.06942547
0.11431479 -0.050246667 0.036385525 -0.0022419633 -0.062017564 -0.05689118 0.026535805 0.009630828
-0.051624354 -0.0637206 0.073113225 0.08848533 0.034252632 -0.06723829 0.021770395 -0.06698621
0.039756168 0.07287639 0.025278099 -0.08463768 -0.038830355 -0.07029305 -0.066313095 -0.08396767
-0.066471025 0.021279944 -0.03987674 0.0017975519 -0.008036558 -0.08333225 -0.060323074 0.044036485
0.009167377 0.07380814 -0.02167779 -0.08245659 0.034858648 0.009030098 0.010399504 0.005759486
0.035457164 0.033643886 0.06649745 0.08027981 0.055781823 -0.049498994 -0.05088817 -0.0026783315
-0.068712726 0.028694037 0.030279927 -0.08643633 -0.061205614 -0.04815948 0.049517862 0.029380104
-0.04371768 0.013545582 0.028071152 -0.07289359 -0.0036931043 -0.03850613 -0.0064405133 -0.06267301
-0.06429667 0.025269138 0.04235046 -0.027532667 0.013672998 0.036789987 -0.049964793 -0.054050297
-0.08256766 -0.031887047 -0.07635371 0.04415386 -0.06281065 -0.07046803 -0.0012472353 -0.07451236
-0.045450166 -0.0823292 -0.064228825 -0.062528774 -0.046930786 0.057475194 -0.07282978 0.037650533
-0.04768706 0.00821494 0.024695626 0.066111244 -0.041011035 -0.091540106 -0.03638063 0.018853141
-0.05828434 0.084105946 -0.052691422 0.017968785 0.02302575 0.012015683 -0.09044323 -0.05042851
0.07358136 0.05960056 -0.069582745 0.066866964 0.0002659568 -0.050321255 0.05104894 -0.03975647
-0.04137458 -0.0795868 0.0012849226 -0.078084454 -0.0009805694 0.06628683 -0.057495113 -0.0453669
00000000: e03a 5e3d 273c 6e3d b7ec 313d 2e04 aebc
00000010: dd32 b93b 7023 72bd b738 abbd f12e 8ebd
00000020: df1d ea3d 73cf 4dbd fd08 153d e7ed 12bb
00000030: 2106 7ebd ba06 69bd 9e61 d93c 9fca 1d3c
00000040: 0f74 53bd f27f 82bd 63bc 953d cc37 b53d
00000050: 7d4c 0c3d 3bb4 89bd d457 b23c 1130 89bd
00000060: 5dd7 223d 3740 953d 0414 cf3c 8556 adbd
00000070: 940c 1fbd cdf5 8fbd 29cf 87bd 3ef7 abbd
00000080: f621 88bd 4753 ae3c cb55 23bd d59b eb3a
00000090: c4ab 03bc 19aa aabd 5415 77bd 9a5f 343d
000000a0: c432 163c b928 973d 9f95 b1bc 00df a8bd
000000b0: f1c7 0e3d faf2 133c ae62 2a3c 12ba bc3b
000000c0: 883b 113d 2cce 093d d12f 883d be69 a43d
000000d0: 7b7b 643d 75bf 4abd 1d70 50bd f286 2fbb
000000e0: 42b9 8cbd c20f eb3c 9c0d f83c 8805 b1bd
000000f0: bdb2 7abd e042 45bd 3ed3 4a3d 8bae f03c
00000100: 4f11 33bd 4aee 5d3c 79f5 e53c 3c49 95bd
00000110: 0208 72bb 9bb8 1dbd f10a d3bb b55a 80bd
00000120: f9ad 83bd 3901 cf3c ad77 2d3d 308c e1bc
00000130: b604 603c 19b1 163d e2a7 4cbd d863 5dbd
00000140: 3c19 a9bd fe9b 02bd 555f 9cbd aeda 343d
00000150: dfa2 80bd 8b51 90bd 467a a3ba f099 98bd
00000160: f429 3abd 369c a8bd 678a 83bd 160f 80bd
00000170: 7f3a 40bd 1c6b 6b3d c827 95bd 7237 1a3d
00000180: 8253 43bd f597 063c 7b4e ca3c 5565 873d
00000190: 30fb 27bd 6179 bbbd db03 15bd e771 9a3c
000001a0: 8fbb 6ebd bd3f ac3d f6d2 57bd 4633 933c
000001b0: 7fa0 bc3c 6ddd 443c 4d3a b9bd 208e 4ebd
000001c0: d3b1 963d b81f 743d 6681 8ebd 8cf1 883d
000001d0: 1e70 8b39 a91d 4ebd b118 513d aed7 22bd
000001e0: 6478 29bd 67fe a2bd d96a a83a beea 9fbd
000001f0: 7386 80ba 64c1 873d ff7f 6bbd a4d2 39bd
